model_prediction_final/model_Ours_Oct_5/lr_model_resistance_sulfamethoxazole.pth (torch, 1959 bytes, 1 tensors)

weight f4 [1, 68]
00000000: 424c 42bb f072 d2be af28 c13d 0c6f 40bd
00000010: bbdb 233e a8d3 c63c 25e5 7e3e 932e b63e
00000020: e2d7 eabc 033a c43d 47b0 183d 811f fc3d
00000030: ba37 1dbd a4e1 88be 80ae ef3f a34d 443d
00000040: 7da3 d5bd bd2c 74bd c5a2 1cbe 302e f6be
00000050: d0f2 afbd a3d5 bdbd c18e b33d 72c5 563d
00000060: b7ca 3fbd 8493 a6bd c065 033c 71a4 1ebe
00000070: 7aa5 3e3e c14d ba3d d9e4 8e3d 0449 893d
00000080: 2b39 9c3c 1093 cebc 9e4c 573d a6ca 87bc
00000090: 2fd6 b4bc d99b 2abe 6cce 31be 8cf0 0f3d
000000a0: e1ce a53d 7ddc cd3d 760b 19bd 7199 56be
000000b0: 3683 f0bd 18b6 dabd 8471 86bd 4c70 913d
000000c0: 9643 83ba c1b9 193e 741c 63bd abc7 39bd
000000d0: e45d 3a3d b6a0 56bc 5e8d 69bc 6ea1 403d
000000e0: 97fd 523d 5883 2f3c a368 20bd 6413 24be
000000f0: 790f cf3b 7e8d bfbd fef1 483d 8ff4 033c
00000100: b52c 88bd 3515 3c3e 2bb8 d6bd 9e61 243e
-0.0029647504 -0.41103315 0.09431588 -0.046980903 0.1600179 0.024270847 0.24892099 0.35582408
-0.028667394 0.09581377 0.037277486 0.123106964 -0.038383223 -0.2673465 1.8725128 0.047925603
-0.104315735 -0.05961298 -0.15296467 -0.48082113 -0.08591235 -0.092692636 0.087674625 0.052434392
-0.046824183 -0.08133605 0.008019865 -0.15492417 0.18617812 0.09096862 0.06977243 0.0670338
0.019070229 -0.02521661 0.052563302 -0.016576122 -0.022074787 -0.16661014 -0.173639 0.035141513
0.080961 0.100518204 -0.037364446 -0.20956971 -0.117437765 -0.10679263 -0.0656462 0.07101497
-0.0010014649 0.15012266 -0.055447057 -0.045356434 0.045499697 -0.01309984 -0.014254896 0.04702895
0.051511373 0.010712467 -0.03916229 -0.16023022 0.006318983 -0.09353159 0.049058907 0.008053913
-0.06649152 0.18367465 -0.10484346 0.16052863
