model_prediction_final/model_Ours_Oct_5/lr_model_resistance_levofloxacin.pth (torch, 1959 bytes, 1 tensors)

weight f4 [1, 68]
00000000: 63c9 5e3c 02f3 5abe 17f7 503e d283 8d3d
00000010: b458 8639 f370 cb3d df0d 363f 245d 7d3f
00000020: 4323 ea3d 5226 313d 423c 993e 165a 2e3f
00000030: 75a0 853f 4fb0 01bf b27a 7bbd a612 30be
00000040: b245 6abe 9aad 81be 0404 44bf 0bc5 37bf
00000050: a39a 3d3f 1092 0c3f 4880 64bf dfcb c3bf
00000060: 043a adbf 14fe bdbf b04a 023f 44f0 60bf
00000070: e9cf d6bb b327 f23d 4d75 073d 1c74 93bd
00000080: 23a1 343e bb21 7a3b 2e44 18bd 15e1 93bd
00000090: c09a 0b3c 7f0f 67bd c796 1fbe 6613 553d
000000a0: db63 99bd 06b5 ec3b 35e9 fabb 6d44 f9bd
000000b0: 1b1e 0e3d dcdb 97be ae7c 34bd c5ca 7d3d
000000c0: 44ba 0abd cac1 80bd 3256 95bd 12aa a4bd
000000d0: 1177 18bb 2736 bdbd 29cc 053d 2f1d 993c
000000e0: 831f b83d 26e5 a43d 01c6 afbd 734b dbbd
000000f0: 5880 693c 8a38 c5bd bf9a 593e 5106 ba3d
00000100: 4fe4 15be 05e5 ae3e d506 33be a00a 1a3e
0.013597819 -0.21381763 0.20406757 0.06909908 0.0002562456 0.09933653 0.71114916 0.98970246
0.11432507 0.043249436 0.29928786 0.6810621 1.0439593 -0.5065965 -0.06139631 -0.17194614
-0.22878149 -0.2532776 -0.7656863 -0.7178504 0.7406408 0.54910374 -0.8925824 -1.5296592
-1.353333 -1.4843163 0.50895214 -0.87866616 -0.0065555465 0.11823978 0.03307085 -0.071998805
0.17639594 0.0038167078 -0.037174396 -0.07220665 0.008520782 -0.056411263 -0.1558486 0.052020453
-0.07489749 0.007223728 -0.007657195 -0.12171254 0.03469668 -0.29659927 -0.044064216 0.061960954
-0.033869043 -0.06286962 -0.07291831 -0.08040251 -0.0023264328 -0.09238844 0.032665405 0.018690674
0.089903854 0.08051519 -0.08582688 -0.1070775 0.014251791 -0.096299246 0.21250437 0.09083236
-0.14637874 0.34159103 -0.17483075 0.15043116
