model_prediction_final/model_Ours_Oct_5/lr_model_resistance_ciprofloxacin.pth (torch, 1959 bytes, 1 tensors)

weight f4 [1, 68]
0.011456302 -0.2702415 0.27785107 0.35748672 0.0023264978 0.0817427 0.70284325 0.8816739
0.08012494 -0.021034423 0.3371767 0.9295815 0.6908696 -0.5706271 -0.062096633 -0.22589186
-0.28155452 -0.30004394 -0.74926084 -0.64860094 1.1759734 0.40044948 -1.0522429 -0.9024438
-1.6251564 -1.2522829 0.22228672 -0.8984932 0.022600723 0.12258081 0.04013915 -0.065717354
0.20417447 0.0458022 -0.024252808 -0.078638405 0.00024864147 -0.033297 -0.11561624 0.010811713
-0.048587773 -0.021653509 0.034011 -0.07098867 0.027866032 -0.25367206 0.004600217 0.020404525
-0.056759126 -0.06222065 -0.113602 -0.10089893 0.022901557 -0.08363043 0.009137565 0.05152713
0.12051259 0.044107065 -0.065068915 -0.0753775 0.04094508 -0.06496829 0.22866511 0.049934313
-0.21776111 0.32985026 -0.16488312 0.119370125
00000000: 37b3 3b3c 185d 8abe 7f42 8e3e 8008 b73e
00000010: 2878 183b b768 a73d 89ed 333f 61b5 613f
00000020: 8b18 a43d 6250 acbc 6da2 ac3e 0ef9 6d3f
00000030: d5dc 303f 9e14 12bf 0a59 7ebd 3250 67be
00000040: ea27 90be 5c9f 99be 8fcf 3fbf b60a 26bf
00000050: 4c86 963f b707 cd3e e5af 86bf 8f06 67bf
00000060: 2005 d0bf ce4a a0bf 219f 633e a603 66bf
00000070: 2725 b93c a60b fb3d f368 243d d296 86bd
00000080: 1d13 513e 169b 3b3d d3ad c6bc 2c0d a1bd
00000090: 185c 8239 6f62 08bd 35c8 ecbd 9c23 313c
000000a0: f903 47bd b362 b1bc 1e4f 0b3d 8262 91bd
000000b0: 4e47 e43c 4ee1 81be 6bbd 963b 6427 a73c
000000c0: 427c 68bd 15db 7ebd 2aa8 e8bd 19a4 cebd
000000d0: 0c9c bb3c 6e46 abbd bab5 153c 1d0e 533d
000000e0: 4ecf f63d 9ca9 343d da42 85bd 855f 9abd
000000f0: 07b6 273d 180e 85bd 3027 6a3e ec87 4c3d
00000100: c5fc 5ebe 22e2 a83e 1fd7 28be 5378 f43d
