model_prediction_final/model_Ours_Oct_5/lr_model_resistance_nitrofurantoin.pth (torch, 1959 bytes, 1 tensors)

weight f4 [1, 68]
000000 7d a7 60 3b 34 11 80 bd 5e cf c4 3d 22 11 c9 3e
       0.0034279518 -0.06253281 0.09609865 0.39270884
000010 0a 64 9f 3b 93 66 7d 3e 3b 3c 85 3e 35 0e c2 3c
       0.0048642205 0.2474616 0.26022515 0.023688415
000020 ce 7f 88 bb 92 f0 4c 3e ee 95 99 3d 61 3d 37 be
       -0.004165626 0.20013645 0.074993 -0.17894508
000030 17 ea 6f bc f2 cf 91 3f 16 31 12 be 96 1d 3a be
       -0.014643214 1.1391585 -0.14276537 -0.18175349
000040 83 50 b7 bd 17 f2 11 be ee 97 b5 be 05 f3 56 be
       -0.08950903 -0.14252506 -0.35467476 -0.20991142
000050 6a b2 29 3f c6 9b de bf b5 13 b0 3f 31 d6 8a 3f
       0.66287863 -1.7391288 1.3756014 1.0846616
000060 1b ed d7 3f 89 6a 81 3f 57 99 bf bf ed 40 1f bf
       1.6869234 1.0110637 -1.4968671 -0.62208444
000070 ed 0d c4 3d 69 64 0b 3e 7a d6 43 3b 22 f1 b5 bd
       0.09572969 0.13612522 0.0029882477 -0.08883883
000080 51 5e 1b 3e 69 83 9e 3d 0c 6a b9 bc c0 d9 d4 bd
       0.15172698 0.07739908 -0.022633575 -0.10393095
000090 79 8c e5 bc 8b 36 a5 3c a0 1b e9 bc 2f e6 5f 3d
       -0.028021084 0.02016761 -0.028455555 0.05466288
0000a0 7d 48 01 bd f4 e9 76 bd ce d2 02 be f1 f8 d6 3d
       -0.03156327 -0.06028171 -0.12775728 0.104967006
0000b0 80 b8 65 3e 3c 1f 3f be 0f f6 25 be 67 c6 7a bd
       0.22433662 -0.18664259 -0.16207145 -0.061224367
0000c0 a8 c5 95 bc ac 34 4a bd 3c 41 57 bd 81 8a 7d bd
       -0.018282726 -0.049366638 -0.052552447 -0.061899666
0000d0 e4 f3 2a 3d ee 4e 24 bc e9 b3 2b 3d 06 89 51 3c
       0.0417365 -0.010028584 0.041919623 0.012789017
0000e0 24 1e 4e 3c 3c 91 46 bd 82 53 05 3e 29 4e d4 bc
       0.012580428 -0.04847835 0.13020137 -0.025916176
0000f0 29 ae aa 3c c1 e2 85 bd 70 c5 40 3d 68 cd ba bd
       0.020835 -0.065373905 0.04706329 -0.091212094
000100 44 0f ae bd 4e 82 de 3d 09 a2 c5 3b ff 51 34 3d
       -0.084990054 0.108646974 0.006031279 0.04402351
