model_prediction_final/model_Ours_Dubai_Oct_5/lr_model_resistance_levofloxacin.pth (torch, 1959 bytes, 1 tensors)

weight f4 [1, 68]
00000000: e86c 323c 426c 7a3d 7f68 483e ae41 823d
00000010: 935d 8b3b 61c8 c1bd d27c 333f e8f5 c93c
00000020: a837 1f3d 310d b93d 0ff8 1bbd d07f bc3e
00000030: bce7 f23e 61b3 0cbe 6ff0 01be 4c32 043d
00000040: 43f1 de3d 541d 2fbd a750 a0be 5fee dabd
00000050: 3844 a93e 3ac5 bb3e 0591 41bf e1f0 62bf
00000060: 2bb9 48bf 7b29 6fbf 4e97 c53e aa3a cf3d
00000070: 976d 05be 6e2e 28be 2044 dd3c 27e4 18be
00000080: 0bdd cabd f74f 373d 7d5f 10be ee2c 36be
00000090: 55df bfbd 2127 48bc 1824 2ebe 3a3b c3bd
000000a0: 5e64 95bc db20 873d b0c6 783e 7bd9 7fbd
000000b0: 851b 49bd 6b6f 3dbd 14ee 923d 4ed1 073e
000000c0: f22c c83d e7a3 933b 2f5f 563d 6489 443e
000000d0: b4f1 3dbd f25e 5abe 3245 b03c e53f f33d
000000e0: 2de8 d2bd 3b4a e1bd 533a 7e3c 7cdb e9bd
000000f0: e8ca 6dbe d738 f3bd 2d59 de3d 36ee a13e
00000100: b3da d4bd 28b2 da3c 277e 443e 4003 47bc
0.010890223 0.0611384 0.19571112 0.06360184 0.0042530983 -0.09462047 0.70112336 0.02465339
0.038871437 0.09035719 -0.038078364 0.36816263 0.47442424 -0.13740303 -0.12689374 0.03227453
0.10885861 -0.04275258 -0.31311533 -0.10689997 0.3305986 0.3667391 -0.7561191 -0.886488
-0.78407544 -0.9342267 0.38592 0.10118611 -0.13030086 -0.16423962 0.027010024 -0.14930783
-0.09905442 0.044753995 -0.14098926 -0.17790577 -0.09368769 -0.01221636 -0.17005956 -0.09532781
-0.018236335 0.065980636 0.24294543 -0.062463265 -0.04909851 -0.046248835 0.07174316 0.13263437
0.09774198 0.0045056227 0.052336868 0.19193035 -0.046373084 -0.21325281 0.02151737 0.11877421
-0.1029819 -0.110004865 0.015516835 -0.114188164 -0.23221934 -0.11876076 0.10856853 0.31627053
-0.10393276 0.02669628 0.19188748 -0.012146771
