model_prediction_final/model_Ours_Dubai_Oct_5/lr_model_resistance_nitrofurantoin.pth (torch, 1959 bytes, 1 tensors)

weight f4 [1, 68]
000000 32 a2 12 3b 5c ce e8 3d f7 d2 98 3c 46 41 8c 3e
       0.0022374508 0.11367485 0.018655283 0.2739355
000010 f2 38 ac ba 5a d3 c5 bd a0 4d d8 bd 18 ad e8 3c
       -0.001313953 -0.09659453 -0.10561681 0.02840285
000020 0c a0 90 3d ac 7d 3f 3e 99 45 74 be db e5 69 3d
       0.070617765 0.18700284 -0.23854674 0.057103973
000030 12 83 98 3d 64 c1 1d 3e 18 3f 5b 3d 5a c7 29 ba
       0.07446875 0.15405804 0.053526968 -0.0006476544
000040 54 46 f3 3c f7 83 1f bb 9f ce 4f be 58 6b da bd
       0.029696621 -0.0024340132 -0.20293663 -0.106650054
000050 7f 12 b6 3e 7f 9a 1e bf 7d ef 6f 3f e9 8f c2 3e
       0.35560986 -0.6195449 0.93724805 0.3800042
000060 ce ea 28 3f c8 b8 04 3f af e5 24 bf bb 3c 9e bd
       0.65983284 0.51844454 -0.6441297 -0.07726427
000070 86 cf be bc cb 35 90 ba dd 9d a5 3c 57 29 9e 3c
       -0.023292314 -0.001100236 0.020216877 0.019306822
000080 c1 aa 8b bc 83 96 1c 3e d4 89 a1 bd 95 53 67 bd
       -0.017049195 0.1529179 -0.07887617 -0.056476194
000090 07 c2 a2 bd 61 98 a4 3d d9 d1 eb 3c d2 89 8c 3e
       -0.07947164 0.080368765 0.028786587 0.274489
0000a0 1c 0c 4f 3e 89 86 4b bd 49 81 d4 bd 39 83 4e bb
       0.20219463 -0.04968885 -0.10376222 -0.003151132
0000b0 07 1d 67 3e ee 8a 03 be a7 01 33 3d fa 31 81 bc
       0.22569667 -0.12845966 0.043702748 -0.015770901
0000c0 17 2d 89 3c a9 b9 34 bd b5 9d 47 be 71 ec 9d bd
       0.016745133 -0.04412237 -0.19493754 -0.07711113
0000d0 23 2e d3 bd 2d b0 61 3e 9f 00 1b 3e 8f cd 40 be
       -0.10311534 0.22039862 0.15136956 -0.18828414
0000e0 20 53 b0 3d 82 25 83 be c3 3b af 3d f6 ae 23 3e
       0.08609605 -0.25614554 0.085563205 0.15984711
0000f0 42 5e 45 3e e5 3d 84 bd e1 92 6f 3d 89 62 a1 bd
       0.19274238 -0.06457118 0.058489684 -0.07880122
000100 a7 b6 95 bb de b5 95 3d af 7b 0e 3e 65 81 07 bd
       -0.004568893 0.07310079 0.13914369 -0.033082385
