model_prediction_final/model_Ours_Dubai_Oct_5/lr_model_resistance_ciprofloxacin.pth (torch, 1959 bytes, 1 tensors)

weight f4 [1, 68]
0	0x3c1e3882	0.009657027
1	0x3d1dc420	0.038517118
2	0xbbb9c0d7	-0.0056687403
3	0x3e556a61	0.20841362
4	0x3b06cbf5	0.0020568345
5	0xbd2897bc	-0.04116033
6	0x3ed8ca00	0.42341614
7	0x3dbc534f	0.09195577
8	0x3d7ed805	0.06221773
9	0xbd943ce1	-0.07238174
10	0x3e420183	0.18945889
11	0x3ee72b65	0.45150295
12	0x3e5852dd	0.2112536
13	0xbd320f1b	-0.043471437
14	0xbd4c4583	-0.04987098
15	0xbb04bcf0	-0.0020254217
16	0x3d8855d9	0.06656999
17	0x3d7ce86a	0.061745085
18	0xbe669812	-0.22518948
19	0xbdb4429b	-0.088017665
20	0x3f06138e	0.5237359
21	0x3ecc24e9	0.3987191
22	0xbf1e40b2	-0.6181747
23	0xbea0cd5d	-0.3140668
24	0xbf4c238c	-0.7974174
25	0xbf2155c6	-0.63021505
26	0x3e993e8e	0.29930538
27	0xbd2f7dd8	-0.042844623
28	0xbdf5f845	-0.12010244
29	0xbd7ea67b	-0.062170487
30	0xbd18bb85	-0.037288208
31	0x3d08b8ae	0.03337925
32	0xbbac36b8	-0.0052555464
33	0x3d485e19	0.048917864
34	0xbe299c58	-0.16563547
35	0xbd819bbf	-0.06328534
36	0xbde42b7c	-0.111411065
37	0x3d4a8b13	0.049449038
38	0xbe39345a	-0.18086377
39	0x3b212fa6	0.002459505
40	0x3dc5399c	0.09630129
41	0xbd955798	-0.07292098
42	0x3e347721	0.17623569
43	0xbd2172b6	-0.039416037
44	0x3a24d19f	0.00062873395
45	0xbd3feca0	-0.046856523
46	0x3d8ac662	0.0677612
47	0x3e362d28	0.17790663
48	0x3dbe8e5d	0.093044974
49	0xbd9b28fe	-0.07576178
50	0x3bf80477	0.0075688916
51	0x3cb4ba76	0.022061568
52	0x3a4d2f8b	0.0007827214
53	0xbe07acec	-0.13249558
54	0xbd0ca200	-0.034334183
55	0x3d32a290	0.043612063
56	0xbd9daae7	-0.07698613
57	0x3c7ef841	0.015562118
58	0xbe41f424	-0.18940789
59	0x3c1a6b3a	0.009424979
60	0xbd9c68b0	-0.07637155
61	0xbe69b8ea	-0.22824445
62	0x3d7383f7	0.059452023
63	0x3e2a4088	0.16626179
64	0xbe253325	-0.16132791
65	0x3d87b2f1	0.06625927
66	0x3ccfd1bd	0.025368566
67	0xbd60bf68	-0.05487004
