model_prediction_final/model_Ours_US_Oct_5/lr_model_resistance_ciprofloxacin.pth (torch, 1959 bytes, 1 tensors)

weight f4 [1, 68]
000000 5d f7 55 3c c1 ed 8e be 76 77 72 3e 6e d6 d2 3d
       0.013059464 -0.27915767 0.23678383 0.102948055
000010 69 ab 06 3f bc 9f 80 bc f8 64 e3 3e 76 d5 88 3f
       0.526053 -0.015701167 0.4441297 1.0690143
000020 51 b2 96 3d 1c 0a e4 3d 6e 6d 48 3e c7 0a 80 3f
       0.0735823 0.11134741 0.19572994 1.0003289
000030 2c 46 52 3f 96 53 a1 be 6b 90 2c 3e 84 8c 5c 3d
       0.82138324 -0.31509084 0.16851966 0.053844944
000040 2a c3 19 bd 92 67 27 bc 46 d1 01 bf c5 f2 d4 be
       -0.03753964 -0.010217564 -0.5070995 -0.41591468
000050 fa 43 ef bc bb 08 c7 3b 0c 4a f6 3d 9c 2f d7 bd
       -0.029207218 0.006074039 0.12025842 -0.10507128
000060 55 fc 36 bd 1d 24 35 bd ca cf a1 3d 37 2f e6 be
       -0.044674236 -0.044223893 0.07900961 -0.44957897
000070 d0 1a a0 3e 9f 6c 40 3e 25 0e 54 3d f4 e8 b3 bb
       0.31270456 0.18791436 0.0517713 -0.0054904167
000080 f2 e1 58 3e 1a c7 c5 3d b4 50 32 3c ab 49 05 bd
       0.21179941 0.09657116 0.010883499 -0.03254096
000090 e3 ca e8 3d 7d dc 0c be f6 bc ac be 84 7c 91 3d
       0.113668226 -0.13755985 -0.33737916 0.071038276
0000a0 b0 eb 54 bc c9 4d 93 bd fe 30 ea bd 95 4d 1a be
       -0.012995645 -0.07192571 -0.11435126 -0.15068658
0000b0 4d 87 ab 3d 4e a3 7e be 28 bf fe bb 03 15 49 3d
       0.08375416 -0.24866983 -0.0077742524 0.049092304
0000c0 ff 92 d6 bd eb ef 98 3e e7 4c 90 bd 4d ec 8d bd
       -0.10477256 0.29870543 -0.07045918 -0.069298364
0000d0 96 60 6e 3d 8c 97 96 bc b0 85 31 bd 3b c5 56 3c
       0.05819758 -0.01838281 -0.043340385 0.013108547
0000e0 31 01 e9 3d 3b 06 74 3d 80 44 c3 bd 0b f8 12 be
       0.1137718 0.059576254 -0.0953455 -0.14352433
0000f0 ba e3 17 3d c2 fa af bc 2b ec 3b 3e 5b fb 2a 3a
       0.03708241 -0.021481875 0.1835181 0.000652244
000100 3e 91 25 be 92 3f 98 3e 98 a9 04 be a5 2e 1f 3e
       -0.16168687 0.29736 -0.1295532 0.15545137
