model_prediction_final/model_Ours_US_Oct_5/lr_model_resistance_levofloxacin.pth (torch, 1959 bytes, 1 tensors)

weight f4 [1, 68]
0.014269498 -0.24181241 0.17999226 0.10331669 0.5086655 0.0228415 0.5291751 1.100383
0.046184856 0.08977064 0.22227205 0.89287525 0.9414896 -0.3396036 0.110054374 -0.038845666
-0.055082086 -0.090800084 -0.63743377 -0.7376021 0.08639267 0.006062127 -0.014700763 0.0025804262
0.008218566 -0.044310704 -0.0124491295 -0.5056209 0.29316154 0.19389409 0.045570146 -0.026731214
0.24159224 0.0979686 0.069061376 0.019501435 0.046265095 -0.25339928 -0.4966403 0.025582546
-0.007735585 -0.024575148 -0.08250647 -0.26384428 0.13801242 -0.19870803 -0.017134229 0.18627751
-0.10055383 0.36074784 -0.048453305 -0.046054356 0.09642201 -0.04832048 -0.00088130444 0.042151146
0.061793685 0.046042863 -0.116774306 -0.13909811 0.011046276 -0.06491747 0.23213573 -0.0012637563
-0.15032475 0.25981134 -0.16275626 0.13205187
00000000: 9dca 693c ac9d 77be e44f 383e b397 d33d
00000010: e737 023f 191e bb3c 0578 073f 5ad9 8c3f
00000020: 552c 3d3d abd9 b73d 499b 633e 7993 643f
00000030: 7605 713f 86e0 adbe 3064 e13d a21c 1fbd
00000040: c19d 61bd 65f5 b9bd dc2e 23bf 7ed3 3cbf
00000050: a4ee b03d cfa4 c63b 78db 70bc 5e1c 293b
00000060: 2aa7 063c 247f 35bd 6ff7 4bbc 5f70 01bf
00000070: 4519 963e 2c8c 463e c3a7 3a3d 6bfb dabc
00000080: f563 773e c3a3 c83d 0d70 8d3d 79c1 9f3c
00000090: 7880 3d3d 8dbd 81be a347 febe 7d92 d13c
000000a0: ca7a fdbb d251 c9bc 27f9 a8bd 9916 87be
000000b0: 2153 0d3e 1e7a 4bbe 155d 8cbc 88bf 3e3e
000000c0: 2bef cdbd f1b3 b83e f976 46bd 7ea3 3cbd
000000d0: e778 c53d b2eb 45bd 5707 67ba aea6 2c3d
000000e0: 601b 7d3d 7197 3c3d 5e27 efbd bc6f 0ebe
000000f0: 71fb 343c 73f3 84bd fdb4 6d3e a0a4 a5ba
00000100: bbee 19be fe05 853e 94a9 26be 9b38 073e
