model_prediction_final/model_Ours_US_Oct_5/lr_model_resistance_sulfamethoxazole.pth (torch, 1959 bytes, 1 tensors)

weight f4 [1, 68]
000000 be c2 2b bb de f9 d1 be 75 0f bf 3d e4 87 76 3c
       -0.0026208605 -0.41010946 0.0932912 0.015047047
000010 19 c8 79 3e 87 e2 cf 3c fb e8 7c 3e 31 04 b7 3e
       0.24392737 0.025376571 0.2469825 0.35745385
000020 9b 4b 1f 3d 56 69 c9 3d 64 97 17 3d f4 06 44 3e
       0.038890462 0.09834544 0.03700961 0.19143277
000030 22 f9 d5 bd 75 57 88 be c9 ab ef 3f 61 5d 64 3d
       -0.10447909 -0.26629224 1.87243 0.055753116
000040 79 e3 c3 bd f5 ed 4e bd a0 7e 13 be f3 46 e4 be
       -0.09564871 -0.050519902 -0.14403772 -0.4458538
000050 5d 2b 44 3c b3 b9 ff 3b cb 98 27 3c a5 47 83 bc
       0.011973229 0.0078041195 0.0102293 -0.016025374
000060 09 0c ac 3d 96 6e 5b bd f9 69 ce bd 9e ba cd bd
       0.08400733 -0.05357226 -0.100788064 -0.1004536
000070 f0 76 9d 3d 70 f6 61 3d fa 3b 34 3d 89 4c 92 3c
       0.07688701 0.05516666 0.04400251 0.01785876
000080 65 36 a8 3d 3c 2d c1 bb f8 d2 9c 3d 00 1c 16 bc
       0.082135 -0.005895285 0.076574266 -0.009161949
000090 78 06 b6 bc 35 eb 06 be ef df 0e be ed cc 0d 3d
       -0.022219881 -0.13175662 -0.13952611 0.03461926
0000a0 e9 cd 9d 3d 0f 7b c7 3d 89 2e 1d bd 15 f5 3c be
       0.0770529 0.097402684 -0.038374458 -0.18452866
0000b0 6c 49 c2 bd 91 d3 e0 bd 26 5a 95 bd ba ba 28 3d
       -0.0948666 -0.10977853 -0.07292585 0.0411937
0000c0 2a 3b 99 bc 18 e2 35 3e 2e 2b 9a bd 60 66 57 bd
       -0.01870497 0.17762029 -0.07527767 -0.052587867
0000d0 d9 ad 51 3d 75 1c b8 ba 61 7c 40 bb c6 25 50 3d
       0.051191185 -0.0014046567 -0.002937101 0.050817274
0000e0 db c2 30 3d fc 7c cb 3b e0 3c 09 bd d8 30 17 be
       0.04315458 0.0062099677 -0.03350532 -0.14764726
0000f0 ff 36 e9 bb 0d 5c 9f bd 1a f9 4f 3d af 94 8d 3c
       -0.0071171517 -0.07781229 0.05077467 0.017282812
000100 b1 79 89 bd 03 40 32 3e f6 67 c9 bd 1e 60 21 3e
       -0.06712664 0.17407231 -0.09834282 0.15759322
