model_prediction_final/model_Ours_US_Oct_5/lr_model_resistance_nitrofurantoin.pth (torch, 1959 bytes, 1 tensors)

weight f4 [1, 68]
0	0x3ba97fc5	0.005172702
1	0xbd5dc118	-0.054139227
2	0x3d105e98	0.03524646
3	0x3cc04564	0.023470588
4	0x3e8c5274	0.27406657
5	0x3e96ba70	0.29439116
6	0x3e8e5158	0.27796435
7	0xbcf424cc	-0.029802702
8	0x3d02e53d	0.0319569
9	0x3e18d5d3	0.14925317
10	0x3d2f1bb3	0.042751025
11	0xbdd285f8	-0.10279459
12	0x3cf21185	0.02954937
13	0x3fa1532e	1.260351
14	0xbda514d3	-0.080606125
15	0xbe173c3e	-0.14769074
16	0xbd341ee0	-0.043974757
17	0xbdc672cf	-0.09689867
18	0xbea633c1	-0.3246136
19	0xbeec34f5	-0.46134153
20	0xbdc4b10c	-0.096040815
21	0x3d26d21d	0.040727723
22	0x3d7a4564	0.061101332
23	0xbdcf8d63	-0.10134389
24	0xbd87e403	-0.06635287
25	0xbbf2c2d8	-0.007408481
26	0x3d3cc858	0.0460895
27	0xbe919f7a	-0.28441983
28	0x3e75fe7b	0.24022858
29	0x3e1b79e1	0.15183212
30	0x3d0cf067	0.034408953
31	0xbda4a21c	-0.080387324
32	0x3e07a7a9	0.13247551
33	0x3de4e848	0.11177117
34	0xbbe1b5b4	-0.006888116
35	0xbd9e5402	-0.07730867
36	0x3ade5ddd	0.0016965229
37	0xbcee8c38	-0.029119596
38	0xbe1b6329	-0.15174545
39	0x3b750ff5	0.0037393544
40	0xbd41fbf7	-0.047359433
41	0xbd1f1360	-0.038836837
42	0xbdc60269	-0.096684285
43	0x3df9440c	0.12171182
44	0x3e2f64ca	0.17128292
45	0xbe09c7b9	-0.13455094
46	0xbd8c8722	-0.06861712
47	0x3d5c6673	0.05380864
48	0xbe34ba77	-0.17649256
49	0x3ebb27b7	0.36553738
50	0x38fb1ebd	0.00011974338
51	0xbcce1f41	-0.025161387
52	0x3ded0b92	0.115744725
53	0xbc63256f	-0.013863905
54	0xbd028929	-0.031869087
55	0x3daf825e	0.085697874
56	0xbcef046b	-0.029176911
57	0xbd9792a6	-0.07401018
58	0x3d89867e	0.067151055
59	0xbb325571	-0.0027211572
60	0xbbcf7827	-0.006331462
61	0x3c20a810	0.009805694
62	0x3d943b06	0.0723782
63	0xbda47bb5	-0.08031408
64	0xbdfcc4a9	-0.123421974
65	0x3e002a75	0.12516196
66	0x3c29b819	0.010358834
67	0x3d784aae	0.060618095
